…
mck3","colab":{"base_uri":"https://localhost:8080/"},"executionInfo":{"status":"ok","timestamp":1653286576639,"user_tz":-540,"elapsed":390,"user":{"displayName":"방지훈","userId":"12258825655434514560"}},"outputId":"74d485fe-61fb-44fe-d077-feda0cebd0e1"},"execution_count":13,"outputs":[{"output_type":"stream","name":"stdout","text":["Model: \"sequential_1\"\n","_________________________________________________________________\n"," Layer (type)                Output Shape              Param #   \n","=================================================================\n"," sequential (Sequential)     (None, 96, 96, 3)         0         \n","                                                                 \n"," rescaling (Rescaling)       (None, 96, 96, 3)         0         \n","                                                                 \n"," conv2d (Conv2D)             (None, 96, 96, 16)        448       \n","                                                                 \n"," max_pooling2d (MaxPooling2D  (None, 48, 48, 16)       0         \n"," )                                                               \n","                                                                 \n"," conv2d_1 (Conv2D)           (None, 48, 48, 32)        4640      \n","                                                                 \n"," max_pooling2d_1 (MaxPooling  (None, 24, 24, 32)       0         \n"," 2D)                                                             \n","                                                                 \n"," conv2d_2 (Conv2D)           (None, 24, 24, 64)        18496     \n","                                                                 \n"," max_pooling2d_2 (MaxPooling  (None, 12, 12, 64)       0         \n"," 2D)                                                             \n","                                                                 \n"," conv2d_3 (Conv2D)           (None, 12, 12, 128)       73856     \n","                                                                 \n"," max_pooling2d_3 (MaxPooling  (None, 6, 6, 128)        0         \n"," 2D)                                                             \n","                                                                 \n"," flatten (Flatten)           (None, 4608)              0         \n","                                                                 \n"," dense (Dense)               (None, 128)               589952    \n","                                                                 \n"," dropout (Dropout)           (None, 128)               0         \n","                                                                 \n"," dense_1 (Dense)             (None, 5)                 645       \n","                                                                 \n","=================================================================\n","Total params: 688,037\n","Trainable params: 688,037\n","Non-trainable params: 0\n","_________________________________________________________________\n"]}]},{"cell_type":"code","source":["epochs = 50\n","history = model.fit(\n","  train_dataset,\n"
…
